data.pth (torch, 5482 bytes, 6 tensors)

l1.weight f4 [8, 54]
00000000: ae09 59be bf97 bb3e 4579 0e3f 3be8 45be
00000010: c4fe dd3d bacc 79be dfb4 7c3e a0e9 fb3e
00000020: aff0 2b3f 35a8 b13e b15c 21be c104 ec3e
00000030: 4949 463f 906a f53e b3bd b73e ece3 9e3e
00000040: c968 b0bd 0416 79be cc0f 12be 724e 79be
00000050: 3422 babd 5719 79be b320 79be 958d 08be
00000060: c738 fa3e 5b90 1fbe 1f4c 053e e91c fe3e
00000070: fb22 a03e f96a 903e c1c6 4dbe e2ce 043f
00000080: 4796 acbe 042a 0f3f 0c2c 183f 2936 323e
00000090: d244 e03e 79cf 283f 7ef6 873e 2928 d23e
000000a0: 810a 85be 1c31 9abd bd1c 753e 9159 db3e
000000b0: c96f 143f 090e 0c3f 2111 783e 0835 e23b
000000c0: b5e4 d83d 155f a43d cf3d a73e c0dc eebc
000000d0: 720b 723e 1fad 923e 5d58 7abe 8f9f c63e
000000e0: 0869 babd a396 c03e 518c 093e 1cc9 e1be
000000f0: c0c1 0dbe 3624 1fbe eb58 b2be 9d2b b4bc
00000100: 8bff 163e c16e dcbd 2f26 10bd 359a a6be
00000110: 26b2 da3e 6e6d debd 390f 8c3e 61b7 e1be
00000120: dd85 cbbd d2d3 ec3e e322 b9bd 15d6 ca3e
00000130: a014 bf3e e3e8 a53e 405b 16be 1159 593e
00000140: b133 33be aae0 e43e 3d94 4cbe 10d9 e43e
00000150: 16f1 38be 2d92 97bd 1de2 efbd 437e 54be
00000160: 0670 f53e 1325 203d f0f6 69be ed41 2cbe
00000170: 6fdb 253d f54d 31be 6a34 3fbe 8ff4 94be
00000180: 0593 e1bd 8fd0 9d3e 0d26 84be e361 093f
00000190: 9c95 e1be 536c 8ebd 6285 303e 3bd1 13be
000001a0: f7a4 9e3d 9539 25be cef2 afbc b396 f23c
000001b0: b343 de3e e78b 0f3f 71af ecbe 631b 673e
000001c0: 3adc 1ebe 3621 84bd 78ac 29be 1f31 d8be
000001d0: f946 8dbe b9c0 cdbe 89d2 cf3e e7ee ad3e
000001e0: 26f1 893c 3874 773e fad6 0d3f 1938 e83e
000001f0: 7398 d93e 2337 a8bd b905 66be a38b 073f
00000200: f72d bd3e 134d de3e def1 823e 3077 153f
00000210: 401b d63d f52d b73e cd84 93be 65df 083f
00000220: 6fce 0cbe 82f6 f03e f285 56be 67f9 263e
00000230: 9814 aa3e d4dd 95be 1221 c93e f916 6e3e
00000240: cc8d f3bc 8734 8ebe d4e6 49be 851e acbe
00000250: d83a 3abe f500 f5be baaf 6d3e a1c9 da3e
00000260: 35a8 793e 1c3b dd3e 0958 623f 2aa0 c03e
00000270: d892 103e 85bf cdbe 5be3 dc3e 1f1d aabe
00000280: 993d 82be 07ef f1bb c7e5 953e 870c 69be
00000290: b335 f5be cb6e 40bd 7028 57bc 5c31 eabe
000002a0: f32f 46be bec2 05bf df6f ecbe fed2 aabe
000002b0: 1209 2e3e 06a3 1b3f f58a 513e 0ed7 0e3f
000002c0: 3ece f2bd 4f51 993e 98b3 633e e8f5 eabe
000002d0: 2865 e73e 87e4 8f3e a760 6c3e 2b7a 773e
000002e0: 72c1 8f3e 7f88 d73e 99c3 5a3e 9c86 113e
000002f0: defc ee3e 5144 d2be d786 f83e cb1d a2be
00000300: 92bf 90be c647 ff3e e80c cc3d e05f e5be
00000310: 35ea 67be b38f 013f 7dc5 e13e 16b5 8cbe
00000320: 7a5c 85be 3a80 96be e5f0 9dbe 3526 093f
00000330: 2143 f53e fbe7 65bd 3269 853e 16a1 3ebe
00000340: c2ab e73e 5703 953c 424c b73e 40ff 363f
00000350: 52d7 dc3e 8e6b fc3e a9c0 4ebd d2d9 283e
00000360: 08a9 f03e f2ef 2e3f b40a 1b3f 04f6 e2bd
00000370: d3a6 983d e608 05bf 99d7 183f e9d6 bc3e
00000380: 826e 023f 1773 c73e 0d15 59be 5482 6a3e
00000390: 4717 b83e 46fa 823e 35f4 cd3e 5e61 b83d
000003a0: 4c47 9dbe 9067 d9be 344b 71be a096 ffbe
000003b0: b93d 0f3f ba8e ebbe f410 05bf 2f80 50bd
000003c0: 74ab c73e 7071 aebe 0013 98bd 2aea f33e
000003d0: 1d75 2f3e c05d 803e f8fd 2ebe ec87 453e
000003e0: 5e23 c83e 9897 1e3f 3a4a e23e 459c 953d
000003f0: cb1b 913e a843 3e3f 4e21 143f cfd1 013f
-0.21195099 0.3663921 0.5565379 -0.1932687 0.10839608 -0.24394503 0.24678372 0.4920168
0.6716413 0.34698644 -0.15758015 0.46097377 0.77455574 0.47932863 0.35886917 0.31033266
-0.08613736 -0.24324805 -0.14263839 -0.24346331 -0.09088555 -0.24326073 -0.2432888 -0.1333526
0.48871443 -0.15582411 0.13017319 0.49631432 0.31276688 0.28206614 -0.2009535 0.5187818
-0.33708403 0.55923486 0.5944221 0.17403473 0.43802506 0.6594158 0.26555246 0.41046265
-0.25984576 -0.07528898 0.23936744 0.4284177 0.5798307 0.54708916 0.24225284 0.0069032945
0.105904974 0.08025948 0.32664344 -0.029157996 0.23637179 0.28647706 -0.2444777 0.3879361
-0.09102064 0.37614927 0.13432433 -0.44098747 -0.13843441 -0.15541157 -0.34833464 -0.021993453
0.1474592 -0.10763312 -0.035192665 -0.32539526 0.4271404 -0.10860716 0.27355364 -0.4408522
-0.09937642 0.46255356 -0.09039857 0.39616457 0.37320423 0.3240424 -0.14683247 0.21225382
-0.17500187 0.44702655 -0.19978423 0.44696856 -0.18060717 -0.07400928 -0.117130496 -0.2075129
0.4793703 0.039097857 -0.22848105 -0.16822024 0.04049247 -0.17314894 -0.18672338 -0.29092833
-0.1101437 0.3082318 -0.2581028 0.5366499 -0.44059455 -0.06954255 0.17238382 -0.14435284
0.07746308 -0.16135247 -0.021478083 0.029612875 0.43411025 0.5607285 -0.462276 0.22569041
-0.15513697 -0.06451647 -0.16569698 -0.42224976 -0.2759321 -0.40186098 0.40590313 0.3397133
0.016838621 0.24165428 0.55406153 0.453553 0.42499122 -0.082136415 -0.2246312 0.52947444
0.3694913 0.43418178 0.25575155 0.5838499 0.10454416 0.3577725 -0.28812256 0.53465873
-0.13750623 0.4706307 -0.20949534 0.16306077 0.33218837 -0.29270804 0.39283043 0.23250951
-0.0297307 -0.2777445 -0.1971696 -0.33617035 -0.1818651 -0.47852293 0.23211566 0.42731956
0.24380572 0.4320916 0.8841558 0.37622195 0.14118516 -0.4018518 0.43142208 -0.33225343
-0.2543762 -0.0073832306 0.2927687 -0.22758685 -0.47892532 -0.04698066 -0.0131322 -0.45740783
-0.19354229 -0.5225028 -0.461791 -0.333641 0.16995648 0.6079563 0.20463164 0.557969
-0.11855744 0.29944846 0.22236478 -0.45890737 0.45194364 0.2810404 0.23083745 0.24167697
0.28077275 0.42096326 0.21363677 0.14211506 0.46677297 -0.41067746 0.48540375 -0.31663355
-0.28271157 0.49859446 0.09963399 -0.4479971 -0.22647937 0.5060989 0.44095984 -0.27481908
-0.26047117 -0.29394704 -0.3084785 0.53573924 0.47902778 -0.056129437 0.2605682 -0.18616137
0.45248228 0.01819007 0.35800368 0.7148323 0.43133026 0.49300808 -0.050476704 0.16489342
0.4700396 0.6833488 0.60563207 -0.1108208 0.07453694 -0.519667 0.59703976 0.36882713
0.5094987 0.38954994 -0.21199436 0.22901279 0.3595526 0.25581568 0.40225378 0.09002946
-0.30718458 -0.42461824 -0.23563844 -0.49919605 0.55953556 -0.4600733 -0.51978993 -0.050903495
0.38997996 -0.3407092 -0.07425499 0.4763959 0.17134519 0.25071526 -0.17089069 0.19290131
0.39089483 0.61950064 0.44197255 0.07305197 0.28341517 0.74321985 0.5786332 0.5071077

l1.bias f4 [8]
00000000: 0835 793e 8eb5 e13e 59e9 5e3f 16b3 153f
00000010: 7107 053f 74f9 433f ff2c 253f fa7c 5a3f
0.24336636 0.44083828 0.8707481 0.5847639 0.5196448 0.7655251 0.64521784 0.8534695

l2.weight f4 [8, 8]
00000000: 2991 1abf 26d1 d1bc 2703 e43d 6024 ac3f
00000010: 4ed1 51bf 5b53 8f3f 74d6 343f bf72 023f
00000020: 3fa4 8bbd 062e 2dbf af2e 3f3f c21f e33e
00000030: ff53 143f 70c4 88bd a332 95bf a59b 563e
00000040: a514 a33f 7334 edbd 3e1b b73e 261c a23e
00000050: 9bf8 773f 9c48 0f3d a4d3 473f 328f 8abe
00000060: 1a10 b7be dc38 7f3f b77a e73e 371f 66bf
00000070: 60c9 9abe f1f2 b43e 158b 113f 81fe 853f
00000080: 397d 47bf 7b01 98bf f808 503f 96d6 89be
00000090: 617d 663e b490 663f 140b 97bf 0404 e13e
000000a0: 83f9 a5be 2b83 a83f cbc7 743f 0516 143f
000000b0: bd22 e43e 2e5a 68bf 4fb0 363f db5b 5c3f
000000c0: d89f 85bd f0a1 f13d 50ad 1abd de5c 9bbe
000000d0: 9033 763d 5662 91be 9a04 9abe 92b8 b2be
000000e0: 6224 893e 444b 08bf b781 abbe 3fe0 8ebe
000000f0: a6c5 323f 7ae5 a33f 68f8 dcbe 2328 803e
-0.60377747 -0.025612425 0.11133414 1.3448601 -0.8196 1.1197313 0.7063973 0.5095634
-0.06818437 -0.6764835 0.7468061 0.44360167 0.5794067 -0.066780925 -1.1656078 0.20957811
1.2740675 -0.115822695 0.35762972 0.316621 0.96863717 0.034981355 0.7805731 -0.27062374
-0.35754472 0.99696136 0.45210811 -0.8989138 -0.30231762 0.353416 0.5685285 1.0468293
-0.7792545 -1.1875452 0.81263685 -0.2692153 0.22508766 0.9006455 -1.1800256 0.43948376
-0.32416925 1.3165029 0.9561736 0.578461 0.44557753 -0.90762603 0.71362776 0.8607766
-0.065246284 0.11798465 -0.03776294 -0.3034429 0.060107768 -0.28395337 -0.30081636 -0.3490644
0.2678557 -0.53239846 -0.33497402 -0.2790546 0.6983284 1.2804406 -0.4315827 0.25030622

l2.bias f4 [8]
00000000: b2f0 643e f4d2 0a3f df8c 0bbe ac99 e43e
00000010: ae4f a73e 885b 3e3e 75e2 90be 00c1 343f
0.22357443 0.5422814 -0.13627957 0.44648492 0.32677978 0.18589604 -0.28297773 0.70606995

l3.weight f4 [7, 8]
00000000: 947a c2be e27a 1ebf 904b 073f 555d 90bf
00000010: d94a d9bf 0c34 283e baa8 9ebe c4a3 a0bf
00000020: eaf5 e5bf 7c94 82bf 6194 173e 26db fd3e
00000030: f3a8 c6bf 8c9b d53e 5b59 a3be 74ef 39bf
00000040: da0d c93d eedc f03e 5b91 d3bf 5ddf 9a3e
00000050: 1547 703f 09df 8cbf 5b41 30be 2eaf cd3e
00000060: 68e1 a23e 0a55 babf 6c3d 83bf 311d 203f
00000070: 68b7 9bbf 1846 a93e cbd1 8f3e 515b f7be
00000080: 1bd2 233f 2dec 98bf 0407 a6be c1d7 9abf
00000090: c342 7cbf b989 91bf aff4 823e ecf7 c33e
000000a0: 1a35 b2bf 4e12 2ebf 9094 1c3f 928d 00bf
000000b0: a49d 93bf 703d 71bf c0ec 093d 232e 363f
000000c0: 830c a8bf 9fbb 9b3f 2c7f 4dbe 0fc2 78bf
000000d0: 2ff8 7a3e c298 b03e 205b b03d 088f 54be
-0.37984145 -0.61906254 0.52849674 -1.1278483 -1.6975967 0.16426104 -0.30988103 -1.2549977
-1.7965672 -1.0201564 0.14802696 0.4958126 -1.5520309 0.41720235 -0.3190411 -0.72631
0.09817095 0.47043556 -1.6528734 0.30248538 0.9385846 -1.1005565 -0.17212431 0.40172714
0.31812596 -1.4557202 -1.025312 0.6254454 -1.2165346 0.3306129 0.28089747 -0.48311856
0.6399247 -1.1947075 -0.32427227 -1.2097093 -0.9853937 -1.1370155 0.25577304 0.38275087
-1.3922455 -0.6799668 0.6116419 -0.5021602 -1.1532483 -0.9423437 0.033673048 0.7116415
-1.3128818 1.2166632 -0.20068043 -0.9717111 0.24508737 0.34491545 0.08611131 -0.20757687

l3.bias f4 [7]
00000000: 3543 b1bd 64a8 a0be d28a 493e 1214 4e3e
00000010: 9bfa 3fbe 71a5 a03d b1bb 373e
-0.08655397 -0.31378472 0.19681862 0.20124844 -0.18747942 0.078440554 0.17942692
